models/pytorch/cifar_net.pth (torch_old, 249462 bytes, 10 tensors)

conv1.weight f4 [6, 3, 5, 5]
000000 92 93 75 bd fd 0b 07 bd ae 95 08 bd 8a 30 eb bc
       -0.059955187 -0.032970417 -0.03334587 -0.028709669
000010 9b 75 d6 bd 3f 36 86 be df c8 49 be 53 4b 97 bd
       -0.1047165 -0.2621326 -0.19705532 -0.07387414
000020 72 2b ea bd 24 e6 24 be 1e 0a 99 be 1e 88 5c be
       -0.11434068 -0.16103417 -0.2989053 -0.215363
000030 c1 63 24 be 45 23 13 be 25 1c 6a be 6b 3d 83 be
       -0.16053678 -0.14368923 -0.22862299 -0.25632796
000040 63 c0 28 be 8e a1 15 be 5d d5 24 be 7e 4d 8d be
       -0.1647964 -0.1461241 -0.16097017 -0.27598184
000050 8e 8a 87 be 63 3a 81 be 43 dc 71 be 93 f6 68 be
       -0.26472896 -0.25239858 -0.2361918 -0.2275031
000060 b9 64 9e be 62 54 f7 bd 8a d1 64 bc 87 c5 cb 3c
       -0.3093622 -0.120766416 -0.013965974 0.024874462
000070 cf 5f 23 3e 42 e0 96 3d f4 7f 65 bd 8a fa af bd
       0.15954517 0.073669925 -0.05603023 -0.085927084
000080 f3 96 6e bb e1 df 04 3e f7 d5 a9 3d c3 19 40 3d
       -0.003640589 0.12976028 0.08292764 0.04689957
000090 1f cc 78 3d 7e 35 89 3d 3b 95 48 3d ce a5 8e 3d
       0.06074154 0.06699656 0.048970442 0.069652185
0000a0 6f 20 80 3d 3a b1 3e 3d 2d 8b 96 bc fb 61 8a 3d
       0.06256186 0.046555735 -0.018376911 0.067569695
0000b0 90 96 e6 bc 61 cd 22 be 81 b0 b8 3d 8d 51 46 bc
       -0.028147966 -0.15898658 0.090180404 -0.012104404
0000c0 3d 35 ab 3d 00 cd ec bc 3d 69 2a 3e 72 f2 33 3e
       0.08359764 -0.028906345 0.16641708 0.17572954
0000d0 72 15 44 3e 48 26 4a 3d a4 ed c9 3d c3 aa 4e 3e
       0.19148806 0.049352914 0.098597795 0.20182328
0000e0 ff 9c 80 3e 97 fa 37 3e 1b 7f a5 3d 2e 6f 44 3d
       0.2511978 0.17966686 0.08080884 0.04795759
0000f0 43 8e 92 3d ac 62 88 3e 27 43 89 3e c4 2b 60 3e
       0.071560405 0.2663778 0.26809046 0.21891695
000100 92 8e a3 3d e7 5d 4f 3e e9 7d 05 3e 61 08 b4 3e
       0.079861775 0.20250665 0.13036312 0.35162643
000110 a5 80 39 3e c8 ab 56 3e 36 e2 46 bd 39 8b 93 3d
       0.1811548 0.20963967 -0.048555575 0.07204289
000120 59 75 c1 3d 3a 15 45 3e 61 da b8 3d cd a2 a1 bb
       0.094462104 0.19246379 0.090260275 -0.0049327374
000130 55 e5 2a bd aa ea ca bd 86 4d bd bd 47 be 3d be
       -0.041722614 -0.0990804 -0.09243302 -0.18529616
000140 1f 88 4c 3e c0 8c 4d 3e ec 0f 6a 3d aa 25 16 bd
       0.19973801 0.20073223 0.05714409 -0.036657013
000150 0d 43 a4 bc c2 58 38 3e 3d 78 63 3e c6 cc 4a 3e
       -0.020051504 0.18002608 0.22213836 0.19804677
000160 4b 87 05 3e 2f 9a 99 3c cf dc 43 3d e6 8c 23 3e
       0.13039891 0.018750278 0.047818 0.15971717
000170 2d c8 2e 3e 9c fa 42 ba 4b 86 8b 3c 50 03 92 bd
       0.17068549 -0.00074378564 0.01703181 -0.07129538
000180 8a 49 22 3e 98 18 77 3e a3 5b ba 3d 7f 6c 23 3d
       0.15848365 0.24130476 0.090995096 0.03989839
000190 77 dd ed bc db 64 ca 3c cf eb 16 bc ed d1 8d bd
       -0.029036267 0.024706295 -0.009211495 -0.06924806
0001a0 15 40 45 be 4e ba b8 bd a6 d4 d9 bc 0d 0d 24 3d
       -0.19262727 -0.0901991 -0.026590656 0.04005151
0001b0 92 64 12 be 7e 4b c9 bc 7e a0 20 be bf 8a cf 3d
       -0.14296177 -0.02457213 -0.15686223 0.101338856
0001c0 f2 3f 69 bc 96 cd 28 be 51 b9 17 be 9e 81 c2 bd
       -0.014236437 -0.16484675 -0.14816786 -0.09497379
0001d0 c4 42 9d bd 16 d3 cc 3a 81 41 07 3d 78 4f 2b be
       -0.0767875 0.0015626873 0.033021454 -0.16729534
0001e0 57 23 18 be 84 4a ad bd 13 cf aa bc 4a 8f 02 3c
       -0.14857231 -0.08461478 -0.020850694 0.007968733
0001f0 fa a5 c7 bd 71 f4 13 3e a8 4c 94 3e 41 c7 e3 3d
       -0.097484544 0.14448716 0.28964734 0.11121989
000200 93 6f 25 ba d5 11 95 3b 55 b5 98 3d 65 67 bd 3e
       -0.00063108763 0.004549245 0.07456461 0.36992946
000210 4c 5a e1 3d 04 88 00 3e 8f 19 e1 bd d4 2b 71 3d
       0.11003551 0.12551886 -0.10991203 0.05887969
000220 e0 5e 12 3e 67 14 02 3e 98 96 a5 3d c1 41 be bd
       0.14294004 0.12703095 0.08085364 -0.09289885
000230 f9 e0 a1 bd 24 ed 0d 3e 66 2c 62 3e f4 0b 90 3a
       -0.07904238 0.13859993 0.22087249 0.001098989
000240 3c 73 dd bd 49 68 1a be c9 69 4d 3d b9 02 ca 3d
       -0.10812995 -0.15078844 0.050149713 0.098638006
000250 e5 de 45 3d e9 ee 60 bd ba 19 b6 3e 3c c8 c8 3b
       0.048308272 -0.054915342 0.35566503 0.0061273854
000260 ad de c2 bd 56 a7 ac 3c 12 82 e3 3d 42 e9 c9 3e
       -0.09515128 0.021075886 0.11108793 0.39435774
000270 f2 d7 e5 3e ce 67 93 3e ab 8a 9e 3e 1d ef a9 3e
       0.44891316 0.28790134 0.3096517 0.3319024
000280 01 38 8a bd c0 4a 88 3e 58 ed f1 3e 44 1f 14 3f
       -0.06748963 0.2661953 0.4725139 0.5786021
000290 02 e1 5a 3e 72 9e b2 be 12 aa b6 be 5d 28 0a bf
       0.21374896 -0.3488651 -0.35676628 -0.5396784
0002a0 d9 ff be be 02 bb ae be 35 c5 3d be e7 a5 59 be
       -0.3730457 -0.3412705 -0.1853226 -0.21254693
0002b0 a0 6b ea be bd 2c 13 be cf 3f b5 3c e5 39 1b 3c
       -0.45785236 -0.14372535 0.022125153 0.009474252
0002c0 60 2c d5 bd cb 0c d6 be 71 bc b2 be ff f0 80 be
       -0.104088545 -0.41806635 -0.34909394 -0.25183865
0002d0 bc f3 40 3d c1 d2 f5 3d 91 8c 54 3e 95 4a d4 3d
       0.047107443 0.12003089 0.20756747 0.10365788
0002e0 04 91 22 3b 4f 9d cc bd 48 0e 59 3e 12 47 fe 3e
       0.0024805674 -0.09990942 0.21196854 0.49663597
0002f0 f5 dc a0 3e fa 8a 05 3e cc 4f 03 be a7 da 1d be
       0.31418577 0.13041297 -0.12823409 -0.1541544
000300 9b f9 b7 be 66 10 df be fb b6 d2 be f9 0d be bb
       -0.3593262 -0.435672 -0.41155228 -0.0058000055
000310 b8 66 fb 3b 52 c3 97 be e7 80 2a be 0c 1a 98 3d
       0.007672157 -0.29641205 -0.16650735 0.07426843
000320 be 77 c2 bd 5b 11 1f be 45 ae a8 be 96 f1 59 be
       -0.09495495 -0.15533964 -0.32945457 -0.21283564
000330 db d6 72 be 33 aa 26 bc 07 d2 a5 3d 1f ea 17 3c
       -0.23714773 -0.010172415 0.080967 0.009272127
000340 7f 71 64 3c 71 58 03 3d 86 a6 66 3c f1 16 8e 3e
       0.013943075 0.032066766 0.014077788 0.27751878
000350 eb 25 e3 3e 0e 7e eb 3e 46 0a 01 3e 4d 3d b9 bd
       0.44364867 0.4599461 0.12601575 -0.09044895
000360 23 7c e1 3c 1b 57 c9 bd 85 29 8e bd d5 82 82 be
       0.027525013 -0.09831067 -0.06941513 -0.25490442
000370 59 63 1f 3e 2d 98 99 3c 92 8d 02 bd e9 ec 7c 3c
       0.15565242 0.01874932 -0.031873293 0.015437343
000380 6d a3 64 3e 1d 9e ab 3e 9d 29 ba 3e 01 2d 3a 3e
       0.22327967 0.33519068 0.36359873 0.1818123
000390 7b 79 a8 3e d2 6b 4e 3e a1 b3 08 3e 49 50 40 bc
       0.32905182 0.20158318 0.13349773 -0.0117378915
0003a0 18 89 f5 3d 4a ea 88 3d ed c0 e0 3c b2 12 84 be
       0.11989039 0.06685312 0.027435744 -0.25795513
0003b0 77 63 ba be d7 88 b8 be 02 68 26 be be 53 f4 ba
       -0.3640401 -0.360419 -0.16250613 -0.001864068
0003c0 21 f7 7f be 0b a3 64 be a5 12 cc bd a7 35 e2 3c
       -0.24996616 -0.22327821 -0.09964494 0.027613474
0003d0 f8 47 5c bd 32 70 de 3d ab 6a 80 3c 17 ba b5 3d
       -0.053779572 0.10861243 0.015675863 0.088733844
0003e0 e9 61 35 3d ed d6 c0 3d 18 3b 34 3d c5 b7 0e be
       0.044282828 0.09415994 0.04400167 -0.1393729
0003f0 f9 f8 3a bd 4f a4 d1 bd f9 9c 36 be b8 b0 19 be
       -0.045647595 -0.102364175 -0.17833318 -0.15008819

conv1.bias f4 [6]
000000 8f 1f d6 3e 7b ef 3d 3e 08 74 df be c5 09 fd be
       0.41820952 0.18548386 -0.43643212 -0.49421516
000010 45 3b 09 be 08 f1 60 be
       -0.13401516 -0.21966946

conv2.weight f4 [16, 6, 5, 5]
000000 76 3e e3 bd b8 2f 8e 3c 37 4e 22 3d 50 e6 ab 3d
       -0.11095898 0.017356738 0.039625373 0.08393538
000010 83 74 43 bd e8 a3 4f 3d 01 ad e5 3d 55 3b 6b 3d
       -0.047718536 0.050693423 0.112146385 0.05742963
000020 2f 29 5b 3d a4 5e 85 3d ec ee 20 bd 1f 78 90 bc
       0.053506073 0.06512192 -0.039290354 -0.017635403
000030 f2 e3 15 3e 25 97 8e 3d a3 55 87 bd a1 b5 b3 bd
       0.14637735 0.06962422 -0.06608131 -0.08774877
000040 b5 2c a7 3d 0a 69 ea 3d e2 06 99 bc d8 17 9a bc
       0.08162824 0.11445816 -0.01868004 -0.018810198
000050 46 be 69 bd e7 1a 99 bd ee 97 82 3c 4d 3c 28 3d
       -0.057066225 -0.07475834 0.015941586 0.041073132
000060 7a f6 e7 bc 12 0a 81 bb 5b 9e aa 3a e5 f1 56 3d
       -0.028315771 -0.003937968 0.0013017164 0.052476782
000070 82 2e 90 bd 09 a4 a3 bd 3e 99 46 bd c0 f9 7d 3d
       -0.07040121 -0.079902716 -0.048485987 0.06200576
000080 cc dc af bc 65 3e 72 bd b6 cb 14 be 75 c2 c5 bc
       -0.021467589 -0.059141535 -0.14530835 -0.024140576
000090 8b 1a 72 3d 46 0d f2 3c 3a 1a 80 3d a2 ac 97 bd
       0.059107345 0.029547345 0.06255002 -0.07405974
0000a0 b5 f5 4d 3d 24 3a 02 3e 4e dc 95 bd 73 f8 d2 bd
       0.050283153 0.12717491 -0.073174104 -0.10301294
0000b0 59 74 91 bd 77 a9 1e 3e 6c 5d d1 3d bc 18 32 bb
       -0.0710227 0.15494333 0.10222897 -0.0027175387
0000c0 1f 6f 0c bd ba 4e ca bd af 96 88 bd cb f2 5a bc
       -0.03428566 -0.09878297 -0.066693656 -0.01336355
0000d0 7b 7b 0e bd bf 56 34 bd c4 c9 24 bd b3 a3 e9 bd
       -0.03478573 -0.04402804 -0.04023148 -0.11408176
0000e0 96 58 4f be 30 ad f9 bd 40 65 42 be 8c b7 19 be
       -0.20248637 -0.12191236 -0.18983936 -0.15011424
0000f0 7b b0 c6 bd 3d 44 48 be fd f9 3f be c5 12 40 be
       -0.0970163 -0.19557281 -0.18747707 -0.1875716
000100 ff f6 43 be 16 25 09 be cb e0 8b bd 36 f9 6a be
       -0.1913719 -0.13393053 -0.06829985 -0.22946629
000110 0b 56 03 be 21 b7 3c be 36 27 59 bb 29 67 34 bc
       -0.12825792 -0.18429233 -0.0033134944 -0.011010923
000120 18 50 75 bd b3 1b 58 bd f2 e2 67 3d 9a 5c cc 3d
       -0.059890836 -0.05276079 0.056612916 0.099786
000130 9d c3 a8 3d 7f 91 54 3d d9 79 e5 3c 23 9d 7b 3d
       0.08240435 0.05189657 0.028012203 0.061429154
000140 50 ee b8 3d 71 d8 d0 bc de 98 80 3d dd f8 30 3d
       0.090298295 -0.025493832 0.06279157 0.043206085
000150 11 a9 6b 3d 10 13 8a 3b 2f 54 f1 bc ff a0 06 be
       0.05753428 0.004213698 -0.029459087 -0.13147353
000160 20 ff 46 be 61 4d ab bd 30 b2 c4 bd d1 63 c4 bd
       -0.1943326 -0.08364368 -0.09604299 -0.09589351
000170 c5 6e 4e be 56 b9 08 be 34 b2 5e be f4 6b d1 bc
       -0.20159443 -0.1335195 -0.21747667 -0.025564171
000180 b7 f9 73 bd 1a d9 37 be c3 07 21 be 6b 86 97 bd
       -0.05956432 -0.17953911 -0.15725617 -0.07398685
000190 d0 e6 1e 3d c9 10 dc 3c da 44 1b 3d ed cc 69 be
       0.03879434 0.026863473 0.03790746 -0.22832079
0001a0 12 67 35 be ab 19 83 3e 5a b6 1a 3e fc b0 ed 3d
       -0.177151 0.2560552 0.15108624 0.11606023
0001b0 c8 2e cf bd c5 30 1b be 2d 4c 70 3e 9d 18 35 3e
       -0.10116345 -0.15155323 0.23466559 0.1768517
0001c0 f0 f0 2e 3e d0 ee 5a be 9f 2c eb bd cd 63 af 3e
       0.17084098 -0.21380162 -0.1148312 0.3425583
0001d0 74 2b b3 bc 56 da cb 3d bd ee fd bd 58 63 75 bd
       -0.021871306 0.09953754 -0.12399051 -0.059909195
0001e0 9a bd 1b 3e 63 77 9c 3d c1 1b d6 3c 9d a9 41 be
       0.15209046 0.07639959 0.026136281 -0.18912359
0001f0 f6 a8 06 be e7 bd 38 3d ff f7 ae bd 1c ea 2c 3c
       -0.13150391 0.04510298 -0.08543395 0.010553863
000200 42 81 1f be d3 fb 36 3d 36 63 88 b9 6a 1f 84 bd
       -0.15576652 0.044673752 -0.0002601386 -0.06451304
000210 b8 60 2a bd f9 19 da bd 1e 67 50 bd 26 9e d4 3c
       -0.041596144 -0.10649485 -0.05087959 0.025954317
000220 1e 08 90 3d 02 57 67 bd 9a 4d 40 bd 6f 9e 2a be
       0.07032798 -0.05647946 -0.046949007 -0.16662
000230 9a a0 a5 bc c5 22 9c 3c 0f 34 b6 bd 2b 05 40 be
       -0.020218182 0.019059548 -0.08896648 -0.18751971
000240 84 61 3a be d4 dd 77 b9 93 50 68 bb eb a4 91 bd
       -0.18201262 -0.00023638393 -0.0035448417 -0.07111534
000250 5c 6b 62 be ae 09 99 be 0b ce 9c 3e dd 26 65 3e
       -0.22111267 -0.29890198 0.30625948 0.22378106
000260 e7 8e 71 3e df 78 0e 3e b7 08 8f 3e c4 2b b7 ba
       0.23589669 0.13913296 0.27936336 -0.0013974835
000270 1a 25 ab 3d 3b 18 c3 3d d8 e8 ea 3d 70 5e a1 3b
       0.08356686 0.09526106 0.11470193 0.004924588
000280 15 b2 b3 bb e9 9d 5a b9 79 11 fd bd 4b 0b ff 3c
       -0.0054838755 -0.00020848926 -0.12356848 0.031133315
000290 0e 57 fb bd e5 c4 17 be 1b c8 ea bd e1 bd bc bd
       -0.12272464 -0.14821203 -0.11463948 -0.09215904
0002a0 4f c1 d9 3c a4 48 1d be eb 23 67 be 6d 57 3c be
       0.026581435 -0.15359741 -0.22572295 -0.18392725
0002b0 03 48 18 be c9 60 ab bd 29 8a 50 be 52 93 b0 3c
       -0.1487122 -0.0836807 -0.20365204 0.021554623
0002c0 3a c8 dd bc cf 50 b5 bd 0f a5 76 3d 1a 3a c2 39
       -0.027073015 -0.08853304 0.060216006 0.00037045853
0002d0 8e 1b 8d bc 2e c7 e1 bd 90 0d 34 be e3 07 e2 bd
       -0.017225053 -0.11024319 -0.17583299 -0.110366605
0002e0 3a b1 73 bd cf 15 70 3b 28 e6 48 bd 88 f4 3d bc
       -0.05949519 0.0036634093 -0.04904762 -0.011593945
0002f0 69 03 dc bc c3 58 be 3c fd 71 49 3e 4e 64 89 3d
       -0.026857095 0.023235684 0.1967239 0.06708585
000300 a6 ee 04 3d 49 7c f1 3d 46 9c 01 3d b3 fd 08 bd
       0.032454155 0.11791284 0.031643175 -0.03344507
000310 26 4d 52 3c 5d 0c 27 bc bb 09 c3 bd 97 91 39 bc
       0.012835776 -0.010195819 -0.0952334 -0.011326215
000320 c6 b3 95 3d c5 8d 55 3d 81 5c b1 3c 37 4a d4 bc
       0.0730968 0.052137155 0.021650555 -0.025914295
000330 07 a3 14 3e a1 e8 85 bc 4d d9 c4 3d 42 c5 25 3a
       0.14515315 -0.016346278 0.09611759 0.0006323644
000340 08 fe 02 3d 1a 41 0c 3d 4c bf 5e 3e 1e 5b 16 3d
       0.031980544 0.034241773 0.21752661 0.03670799
000350 14 eb 11 3e c8 34 ab 3d e0 36 90 3d 1f 69 d0 3d
       0.14249831 0.083596766 0.070417166 0.101763
000360 81 10 b9 3d 1a 79 5e 3c 1c b1 b7 bb 3b a7 88 3d
       0.09036351 0.013578678 -0.00560583 0.06672522
000370 77 42 35 3d 32 e1 3a 3c a9 3f 22 3d 24 11 d1 bc
       0.04425284 0.01140623 0.039611492 -0.025520869
000380 a5 0a 5f bd 8b 15 94 bc 55 3e 03 bd 84 e7 d3 bd
       -0.05445351 -0.018076679 -0.032041866 -0.103468925
000390 0b 9d a1 bd 2f 26 67 bd 63 a1 92 3e 7f 5b 62 3e
       -0.07891282 -0.0564329 0.28638753 0.22105215
0003a0 d0 5f cd 3d ee ca c5 3c 8a 5a a3 3c f4 4b 38 3e
       0.100280404 0.024144616 0.019940633 0.17997724
0003b0 30 99 4a 3e 37 8f d9 3d 28 02 76 3d 00 0e 04 bd
       0.19784999 0.10623019 0.06006065 -0.032239914
0003c0 27 1d b1 bd 54 4e 63 3c f7 bc 69 bd 4f c9 a1 bd
       -0.086481385 0.013873655 -0.057064977 -0.07899725
0003d0 4d 41 24 bd fc 02 a6 bc 28 0a 02 3c 00 29 c2 3c
       -0.04010134 -0.020265095 0.007936992 0.023701191
0003e0 76 8e 88 bd 90 37 bb 3d 41 e4 04 be e3 c6 0a bc
       -0.06667797 0.09141457 -0.12977697 -0.00847027
0003f0 ea b4 af 3c 89 2b 1b 3e eb 6d ae 3d 77 2e 3e be
       0.021448571 0.15153326 0.08517059 -0.18572412

conv2.bias f4 [16]
000000 e0 74 5d 3f 62 ee 4f be 74 e6 01 be 0d 52 4c 3f
       0.8650646 -0.2030578 -0.12685567 0.798127
000010 34 ee 87 3e e8 96 07 bf 37 7c f9 3d 90 7c d4 3d
       0.26548922 -0.5296464 0.12181895 0.10375321
000020 2c 27 18 3d 3c 6f cd bd df fc 61 bf 7b af a1 be
       0.037146732 -0.10030982 -0.88276476 -0.31579193
000030 d5 4b 98 3c b6 3f f8 3e 51 bf f5 3d e3 98 fc 3e
       0.018590847 0.48486108 0.11999381 0.49335393

fc1.weight f4 [120, 400]
000000 54 7f 9c 3c 69 85 c4 bc 3e 79 8b bc 65 3e e4 bb
       0.019103684 -0.023989396 -0.017025586 -0.006965446
000010 89 38 29 bd 63 12 15 bd 21 3c e0 3c 0e 24 7d bc
       -0.04131368 -0.036394488 0.027372422 -0.015450491
000020 ba f0 37 bd fc 96 53 3d b3 2d 01 bd 25 6b cc 3b
       -0.04490731 0.05165766 -0.031537723 0.0062383586
000030 a1 65 cc bc 74 0e 48 3d 48 77 b1 bc b7 a2 39 bd
       -0.024950804 0.04884191 -0.021663323 -0.045321193
000040 09 64 20 3d 64 92 fd 3c 14 80 2a bd 0d d3 25 3d
       0.0391579 0.030953594 -0.04162605 0.040484477
000050 82 c7 d8 bc 8e 67 46 3c a4 e6 2e bd 58 b1 6b 3a
       -0.02646232 0.01210965 -0.042700425 0.0008990965
000060 2d 61 15 3d ed 41 55 bd 27 15 52 bd a6 92 00 3d
       0.036469627 -0.052064825 -0.051289704 0.031389855
000070 9f 4f 85 3c 26 83 4c 3d a1 ba 9a bc 87 02 0b bc
       0.016273318 0.04992976 -0.01888782 -0.008484489
000080 c1 54 81 3c 6d d7 3d bd 45 6b 39 bd 6f 7b 51 3c
       0.015787484 -0.046348024 -0.045268316 0.0127857765
000090 c5 32 cc 3b 85 6c a1 3b d7 d3 c2 3b 34 d1 d3 3c
       0.006231638 0.0049262666 0.0059456634 0.025856592
0000a0 6e 71 03 bd 1a 0c 5f bd c2 fb 6d 3c 9e c2 66 bd
       -0.032090597 -0.0544549 0.014525356 -0.056337945
0000b0 e3 88 ef bb 15 c1 2f bd d5 66 46 3c 7e 7b c1 bc
       -0.0073100193 -0.042908747 0.012109478 -0.023618456
0000c0 a4 49 31 3d 7a 8a 59 3a 4e ea 03 3c b5 b7 0b bd
       0.04328312 0.00082985277 0.008051468 -0.034110744
0000d0 b6 76 26 3d 45 85 28 3d 0c 94 6e bc 21 06 74 3c
       0.040640555 0.04114272 -0.014561664 0.014894039
0000e0 f8 b7 fa 3c cb ce 9a 3b ad 19 16 3d f0 fd 11 3d
       0.030605301 0.0047243587 0.03664558 0.035642564
0000f0 de 6c 4b 3a c8 3f 73 3d 51 6a be 3d 7c b8 9d 3d
       0.0007760058 0.059387 0.09297622 0.07701203
000100 ba de 21 3d 87 82 d1 bc 97 6f 27 3d 88 34 07 3d
       0.03951905 -0.025574936 0.040877905 0.033009082
000110 a7 39 91 bc 28 44 c1 3b 61 d9 38 bb 13 56 2f bd
       -0.017727686 0.0058980174 -0.002820574 -0.042806696
000120 58 d1 38 3d 33 3b 05 bd ea cc 64 3d f2 61 87 3d
       0.04512152 -0.03252716 0.055859484 0.066104785
000130 3d 0b 2c 3c c1 b1 d4 bc a1 dd f0 3c dd 82 b5 bb
       0.010500726 -0.025963666 0.029402556 -0.0055392818
000140 1b f5 09 3c 87 95 73 bd aa 66 72 bd d5 a6 c7 bb
       0.008420254 -0.059468772 -0.05917994 -0.006092886
000150 b3 91 14 bd de cc 8e bc 78 41 0f 3c cf bf 91 bd
       -0.036271762 -0.017431673 0.008743636 -0.07116663
000160 a9 8d 6c bd 8d 92 75 3b 8f 0b 7a bd f5 fa a1 3c
       -0.057752285 0.0037471384 -0.06104618 0.019772986
000170 5e 84 75 bd 84 ef 29 bc 22 23 99 bd 66 2f 95 bd
       -0.05994069 -0.010372046 -0.07477404 -0.07284431
000180 5e 9c d5 bd 0e 77 6c bd b0 4f 9e bd c8 08 e8 3c
       -0.10430215 -0.057730727 -0.07730043 0.0283245
000190 4b df db 3d 85 db 09 ba 76 2b 47 3c ae f6 97 3d
       0.10735949 -0.0005258846 0.012156358 0.07420097
0001a0 d3 f0 a5 3d 0f 23 85 bc b5 1c 15 bd aa ff ee bc
       0.08102574 -0.016252069 -0.03640433 -0.029174645
0001b0 3d 93 0a bd c7 4c 05 bd df c5 54 3c 9c 93 1b 3d
       -0.033831824 -0.032543924 0.012986629 0.03798257
0001c0 48 9d 8c bc 9b 7f 41 bd de 41 d7 bc a4 c4 45 3d
       -0.017164841 -0.047240835 -0.026276525 0.048283234
0001d0 2b 46 b4 3b 54 ac 95 3d ba 2d 86 3d ea 9c 5d bd
       0.0055015287 0.073082596 0.065516904 -0.054104723
0001e0 02 be 0e bc 8a 83 44 bd 64 79 71 bd 28 2d fb bc
       -0.008712294 -0.047977008 -0.058953658 -0.03066118
0001f0 9f 3e 96 bc 72 dd fc bb 79 d9 9d bc ef ac 01 3c
       -0.018340407 -0.007716828 -0.019268738 0.007914766
000200 56 5b 0b 3d 29 63 34 bb 5c 9e 9d bd c8 4b 0e 3d
       0.03402265 -0.0027524924 -0.0769622 0.03474024
000210 6d 03 0f 3d c7 27 45 3d 92 f4 97 bb 02 7b 1f bd
       0.034915376 0.048133638 -0.0046373094 -0.03893567
000220 b1 f9 0c bb 3b 2b 9b bd c6 be 07 bd 54 ee 25 bc
       -0.0021511132 -0.07576605 -0.03314092 -0.010127623
000230 5e c4 14 3b 4b ef 17 bd ef 17 63 bc ff a2 6b 3b
       0.0022700052 -0.037093442 -0.013860687 0.0035955308
000240 f3 80 ee bb cf a0 93 bc 16 98 91 3c 16 9b 89 bc
       -0.0072785555 -0.018021015 0.017772716 -0.016797584
000250 9b 58 d3 3c 08 24 58 3d 17 45 46 bd 3b 6a 28 bc
       0.025799086 0.052768737 -0.048405733 -0.010279234
000260 af 62 29 bd c3 ba 02 bd 99 59 fd bc 42 f5 9f bb
       -0.041353878 -0.03191639 -0.030926513 -0.004881532
000270 16 af 3a bd 10 a2 dd 3b 47 e4 71 bd 24 23 d3 3c
       -0.04557713 0.006763704 -0.059055593 0.025773592
000280 80 70 03 bd 24 34 95 bd 84 4b 40 3b 20 0d e0 3c
       -0.03208971 -0.07285336 0.0029341886 0.027350008
000290 1d a0 1c bb 6c 55 43 bd 41 00 fe 3b e7 ba 38 bb
       -0.0023899146 -0.047688887 0.007751495 -0.0028187574
0002a0 30 e1 1b 3c f0 a9 31 bd e0 65 0a bc d3 71 1a bd
       0.009514138 -0.043374956 -0.00844714 -0.037706207
0002b0 94 1d 01 bc 22 8d e3 bc 5b 10 de bb e4 cc 6b bd
       -0.007880587 -0.027777258 -0.006776852 -0.057568446
0002c0 9f 64 db 3c df 29 0a bc c7 0b 54 bd db a6 cf bc
       0.026781378 -0.008432834 -0.051769044 -0.025348118
0002d0 39 33 10 3d 22 c0 71 3d 94 6e 75 bc 46 b4 13 bd
       0.0352051 0.059021123 -0.014979977 -0.036060594
0002e0 f2 f7 50 3c b9 e8 3b 3d e6 a3 3c 3d cb eb 97 3a
       0.012754427 0.04587624 0.046054743 0.0011590658
0002f0 01 59 83 bc aa ce 39 bd da e6 b7 3c 8a ec 91 3c
       -0.016033651 -0.045363106 0.022448946 0.017812986
000300 d0 2d 3e bd f4 27 b1 3c fb 1e 15 bd 26 98 ac 3c
       -0.04643041 0.021625496 -0.0364065 0.021068644
000310 eb 27 07 3d aa f7 83 bd 2d a9 1f bd 24 07 45 3d
       0.032997053 -0.064437225 -0.038979698 0.048102513
000320 d1 7f 24 bd a9 26 2b bd 39 a5 06 3d 56 fe a6 3c
       -0.040160958 -0.041784916 0.032872412 0.020384949
000330 79 2e cf bc 2d 1e 8e bd c3 31 21 bd 12 37 2c bd
       -0.025290715 -0.06939349 -0.039354097 -0.042044707
000340 b8 ec a6 bd 75 a6 6d bb 0b e8 8d bd 2b e9 cb bd
       -0.08150619 -0.0036262546 -0.06929024 -0.09956583
000350 75 79 1d bd b9 d2 60 bd 3e 4c 00 bd 74 ae 52 b9
       -0.03844591 -0.05488846 -0.03132271 -0.0002009215
000360 09 7f dc bc d1 f6 08 bc d8 04 47 bd cb 59 a8 bd
       -0.026916044 -0.008359627 -0.048588604 -0.08220252
000370 9b 44 a6 bc 5d e2 d4 bc 64 69 a4 bd b9 5a 80 bd
       -0.020296386 -0.025986845 -0.08027914 -0.06267304
000380 2a df 18 bd 6d a4 d8 bc ff fe 05 3d 3b 5a 4e 3d
       -0.0373222 -0.026445592 0.032713886 0.05037902
000390 c6 f8 22 bd 93 43 2e 3c 00 59 4e 3a 95 cf 11 3b
       -0.03978803 0.010636228 0.00078715384 0.0022248973
0003a0 6e f8 52 3d 0b 21 bf 3c 32 e2 79 bd 21 7c 72 3c
       0.051506452 0.023331186 -0.061006732 0.014800102
0003b0 5e 66 a9 3b d7 80 1a 3d 6b 4a 5c bc 38 50 bd bc
       0.005169674 0.037720527 -0.013445477 -0.02310954
0003c0 92 23 49 3d 0b c0 96 3b 47 af b2 3a 2a d9 90 bd
       0.049106188 0.00460053 0.0013632559 -0.07072671
0003d0 74 c6 4c 3b 6e ce 8c bc c3 3d b4 bb 0e e4 3f bd
       0.0031246217 -0.017188277 -0.0055005266 -0.04684835
0003e0 20 d7 12 bd b6 0d c2 bc 4a eb 25 3d 8a 2e 45 3c
       -0.03584969 -0.023688179 0.040507592 0.012035022
0003f0 76 10 ed 3c d3 8e a3 3d 56 cb 42 3a 75 a5 d1 3b
       0.028938513 0.07986226 0.0007430812 0.006397898

fc1.bias f4 [120]
000000 a0 ab 3e 3d 97 ac a3 bc 17 76 84 bb 0c bc 01 3a
       0.046550393 -0.019979758 -0.0040423977 0.00049489806
000010 04 93 d9 bb a6 bb 13 bd 92 a3 b8 3d 62 64 1d bd
       -0.00663984 -0.036067627 0.090155736 -0.03842581
000020 11 49 74 bd 80 8f b6 3c 12 d1 d2 bc bf 41 89 bc
       -0.059639994 0.022285223 -0.025734458 -0.016754983
000030 c3 4a 09 bc d9 44 b5 bd 42 da 48 bd 42 95 ae bc
       -0.008379641 -0.08851022 -0.049036272 -0.021311406
000040 04 ac 96 bc c5 ef 45 3d a4 94 99 3d bc f3 e9 bd
       -0.01839257 0.048324365 0.07499054 -0.11423442
000050 ee f6 92 bd 66 09 28 bd 19 94 87 bc d4 fb 7b bd
       -0.07176004 -0.041024588 -0.01655011 -0.06151946
000060 9e 33 0e 3d 36 30 54 3d c6 e1 31 3c ce 21 e3 bc
       0.034717195 0.05180379 0.010857051 -0.02772608
000070 be 4e b5 bc c2 94 ee bc 74 34 6a 3d 33 c4 b9 3d
       -0.022132274 -0.029123668 0.05717893 0.09070625
000080 8d a3 10 bc 83 99 a1 bd 6e c6 03 3e 25 59 b5 3e
       -0.008828056 -0.07890608 0.12868664 0.35419574
000090 36 54 79 3d a1 fb 1b 3d af 4c 90 bd f2 d4 6c bc
       0.060871325 0.03808177 -0.07045876 -0.014455067
0000a0 c9 45 4e bc ad d3 8c 3d 81 50 cc 3d 3d 78 42 be
       -0.01258988 0.068763115 0.099762924 -0.1899118
0000b0 19 25 58 3c 77 3a 82 bd 76 fb 07 3e 76 e6 9c bc
       0.0131924385 -0.063588075 0.13279518 -0.019152861
0000c0 af ba 16 bd 7e 6d 56 bd 29 02 a9 3d 53 b7 b9 bb
       -0.03679913 -0.052350514 0.08252365 -0.005667606
0000d0 cb 39 62 3c b7 3c 35 3e 2a 28 12 be a2 3b 74 bd
       0.013807724 0.17698942 -0.14273134 -0.059627183
0000e0 fc a9 ba 3d 52 64 b3 3d 8a 5e 1b bd dc d5 34 bd
       0.09114453 0.08759369 -0.037931956 -0.044149265
0000f0 4f 09 b9 bc ad 68 a1 3d 22 bb 23 3e 44 88 16 3c
       -0.022587446 0.078812934 0.15989354 0.009187762
000100 19 4b 2e bd 5a 54 3b 3c c9 ee c9 3c ce 4c d8 3d
       -0.042552087 0.011433685 0.024649994 0.10561524
000110 a4 12 ae 3d 7a 78 16 3e 7e c2 ea 3d c8 7c 05 3e
       0.08499649 0.14694396 0.11462878 0.13035882
000120 a7 b2 16 bc 79 8c b9 3b c7 59 2e 3e bf d8 f8 3d
       -0.0091978675 0.0056624976 0.17026435 0.12150716
000130 09 dc 71 3d a5 12 40 bd 02 b9 ad 3c 79 ee 41 3d
       0.059047733 -0.04689278 0.021206383 0.047346566
000140 71 a2 05 3e 9a af b9 bd bf 5f a7 3d fe 7b 28 bc
       0.13050248 -0.090666965 0.08172559 -0.010283468
000150 2d 61 32 bd ba ba 54 bd 2e 33 c4 3b 93 6a 20 3a
       -0.043549705 -0.05193589 0.0059875464 0.00061193964
000160 5d a0 11 ba 52 38 5a bd 4f 55 a5 3d 64 94 34 3e
       -0.0005555207 -0.053276367 0.08072912 0.17634732
000170 13 83 e1 3d 55 c2 a4 3d 71 65 5b 3e c7 5b 9c bd
       0.110113285 0.080448784 0.21425416 -0.07634693
000180 21 e2 03 3c 80 66 89 3d b5 37 39 3e bd 9f 1c be
       0.008049519 0.067090034 0.18087657 -0.1529531
000190 d1 5a b0 3c a8 7a 16 3e 81 29 1d bc 33 b6 ee 3b
       0.02152768 0.14695227 -0.009592415 0.0072849034
0001a0 0c dd a0 bd 4f a0 c9 3c 6b 05 93 3d 2c fe a7 bc
       -0.07854661 0.024612574 0.07178768 -0.02050694
0001b0 53 c7 e6 3d e6 5c d2 bd 2b 71 a6 bd 62 03 bc 3d
       0.11268487 -0.10271625 -0.08127054 0.09180333
0001c0 1c 09 2a 3d 7e 31 e3 bc ab 78 cf 3c 47 be 30 bd
       0.041512594 -0.02773356 0.025326094 -0.043150213
0001d0 ee 13 07 3e fc 81 32 bc 6d 6a d2 3a 7a df 46 ba
       0.13191196 -0.0108952485 0.0016053446 -0.0007586401

fc2.weight f4 [84, 120]
000000 34 7d 06 3d e3 6a 3c bc bf 4f cd bc 6a 86 5c 3d
       0.032834247 -0.011500093 -0.02506244 0.053839125
000010 f8 b7 eb 3c 37 7f 3b 3c f1 e9 06 bd c4 84 1f 3d
       0.028774247 0.011443905 -0.032937948 0.038944975
000020 ab 9f ec bd 93 89 1c be d3 33 8a bd b1 6d 91 3d
       -0.11553892 -0.15286855 -0.06748166 0.07101
000030 49 1a a1 bc 7d e4 02 bd 26 11 d1 bc 08 ff 34 3d
       -0.019665854 -0.031956185 -0.025520872 0.04418853
000040 53 e4 5b bc f8 ea 29 3c 42 60 e6 3d 13 3b 96 3d
       -0.013421136 0.010370962 0.112488285 0.07335486
000050 7d da 25 3c dc ae 6b bd 73 e6 5d bd 80 8f 07 3d
       0.010122892 -0.057539806 -0.05417485 0.033095837
000060 66 6e 21 3d 03 0e 97 3d 5b 36 3f 3c 6d ba 1c bd
       0.039411925 0.073757194 0.011670674 -0.038263727
000070 bd d1 34 3d a6 d2 99 bd 32 e9 7a bd 2d 70 b8 3d
       0.044145335 -0.07510881 -0.06125755 0.09005771
000080 ee 7e 85 bd 8a 54 ce bb b5 aa 68 3d 1f 27 41 3d
       -0.065183505 -0.006296699 0.056803424 0.04715645
000090 86 a4 53 bc 58 cb ef 3d a7 5a a6 bc 93 3b b7 3c
       -0.012917643 0.117087066 -0.020306898 0.022367274
0000a0 25 58 16 3c 5e fa ac 3c de f0 ec bc f8 95 fd 3d
       0.009176289 0.021115478 -0.028923448 0.1238212
0000b0 ae 22 a7 3d 2c c5 57 bd 0a 67 ac bd db 76 b9 bd
       0.081609115 -0.052678272 -0.08418091 -0.09055873
0000c0 bd 59 b4 bd e2 84 43 3d d0 b8 96 3d 5d fe 77 3d
       -0.08806179 0.04773415 0.07359469 0.060545314
0000d0 be 5b ef bc f0 4f 8d 3c d8 8d 06 bd b2 b1 98 3d
       -0.02921855 0.017250031 -0.032850116 0.07455768
0000e0 30 a4 b7 bd b9 61 71 bb 5c 5d 04 be 95 40 5b 3d
       -0.08966863 -0.003683193 -0.12926239 0.053528387
0000f0 c4 24 f5 3d 93 0f 20 bd 04 cb bf bd a4 b5 b6 3d
       0.11969903 -0.039077353 -0.09364894 0.08921364
000100 01 8d 9f 3d 63 05 e5 bd 0e 96 25 3d 38 78 e9 bd
       0.07790566 -0.11182668 0.040426306 -0.11399883
000110 1a b8 c0 bd 86 74 28 3c 53 f1 d8 bd b2 13 ff 3c
       -0.094101146 0.010281688 -0.10592904 0.031137321
000120 b2 11 c1 bc 7d 3c 2f bd 77 4f 6b 3d ed 9a cd bd
       -0.023568008 -0.042782295 0.05744883 -0.100393154
000130 ce 25 73 bd 30 85 c6 3d 8a 3b 06 bd 67 6f 2c 3d
       -0.059362225 0.09693372 -0.032771625 0.04209843
000140 91 33 c8 3c 7f f7 d4 bc a3 c1 50 3d c9 d7 4c 3e
       0.024438651 -0.025996922 0.050965916 0.2000419
000150 9b b9 86 3d 07 2e ea 3c 1a 6e 23 bd 8a 00 ca bc
       0.0657837 0.0285864 -0.039899923 -0.02465846
000160 d1 ab a7 3d a3 78 e0 bd 45 0f af 3d be 66 76 bd
       0.08187068 -0.1096051 0.08547834 -0.060156576
000170 49 82 8d 3c 04 81 0f bd c3 c6 d1 bd 10 9c 26 bb
       0.017274039 -0.03503515 -0.10242989 -0.002542261
000180 27 78 85 3c c6 e7 0f bd 11 f1 d4 bd 2c 18 30 bd
       0.016292645 -0.035133146 -0.10397542 -0.042991802
000190 2f 3a 3c bd a9 b7 20 3d bc d8 d3 bd 20 26 04 3e
       -0.045953926 0.039237652 -0.10344073 0.12905169
0001a0 6b e3 2c bd b0 5b c2 bc 87 3f 30 3e de 06 fc bc
       -0.04220907 -0.02372536 0.17211734 -0.030764993
0001b0 ca a0 65 bd e1 49 38 3d eb 28 c7 bd 55 3c 6e bc
       -0.056061544 0.04499233 -0.09724601 -0.014540751
0001c0 e9 80 41 3d 76 35 28 3d 09 32 53 3d 1c 21 3b 3d
       0.04724208 0.04106661 0.05156139 0.045685872
0001d0 3a aa 80 bd 01 a8 8b bc c8 e5 82 bd 01 2b 49 39
       -0.06282468 -0.017047884 -0.063914835 0.00019184874
0001e0 a9 74 5d 3d 55 b2 28 3d 09 e3 0e 3d f5 87 2a bd
       0.054066334 0.041185696 0.034884486 -0.041633565
0001f0 bd 24 bb bc 62 99 fe 3b 14 af 36 3d 5b 70 90 bd
       -0.022844667 0.0077697495 0.04460056 -0.0705268
000200 fc 24 91 3d 80 95 62 3b 1e 8e 34 bd 96 ca 5b 3c
       0.07087132 0.0034573972 -0.044080846 0.0134149995
000210 34 1a b0 bd 36 15 c7 bb f5 c3 ec bc ff 13 8f bd
       -0.08598748 -0.0060755266 -0.028902033 -0.06986236
000220 61 c4 84 3d 70 c1 cd bc 7d 91 42 bd 54 b3 86 bc
       0.06482769 -0.025116652 -0.04750203 -0.016442932
000230 c1 f3 b1 bd 38 2e 45 3d d7 65 65 3d 47 72 ba bd
       -0.086890705 0.04813978 0.056005325 -0.09103828
000240 20 61 7f 3d b0 da 12 bd a5 f9 a8 bd 09 c7 77 3d
       0.062348485 -0.035853088 -0.08250741 0.06049255
000250 f4 bb 72 bc 1e da 6e bc 9d 83 14 bd c8 c4 88 3d
       -0.014815319 -0.01457837 -0.03625833 0.06678158
000260 05 77 8c 3d 2f 93 d0 3c 5b 22 19 3d a9 96 3a bc
       0.06858639 0.025460808 0.03738628 -0.011388459
000270 2a 55 86 3d 20 ad cd bd 0d 38 fd ba 3e b3 01 bd
       0.065592125 -0.100427866 -0.0019319073 -0.03166508
000280 65 c0 87 3d f5 d8 bd bc 75 84 c6 bd 3a 02 8d bc
       0.06628493 -0.023174742 -0.09693233 -0.017212976
000290 e1 05 05 3d 2b 8a 80 3c 46 2d 71 3c 5d a8 86 bc
       0.03247631 0.015690884 0.014720267 -0.016437704
0002a0 c3 3e bb bd e8 02 ae bd 1a 9c a8 3b 02 66 ad 3d
       -0.0914283 -0.08496648 0.005145562 0.08466722
0002b0 2d 12 45 3c ac 4c 7b 3d 7a dc 01 bd 16 33 bf 3d
       0.012028259 0.061352417 -0.031704403 0.09335916
0002c0 1b bb 15 bd a6 a4 b5 bd 34 93 a6 3d 67 73 4d 3d
       -0.03655539 -0.08869295 0.081335455 0.050158884
0002d0 e8 e4 97 3d 14 13 b1 bd a1 7e ae bd fe df 0b bd
       0.07416707 -0.08646217 -0.08520246 -0.034149162
0002e0 bf ac 1b 3c fb 2a a7 3d ff 4a 93 bd 58 8f b4 bd
       0.009501635 0.08162495 -0.07192039 -0.08816403
0002f0 71 4c 31 bd 7f fe 1a bd 18 d1 db 3c 66 80 a7 3c
       -0.04328579 -0.037840363 0.026833102 0.020446967
000300 0c 95 f6 bc c5 6f 10 bd c3 8a 24 bd 27 db 57 bd
       -0.030100368 -0.03526284 -0.040171396 -0.052699234
000310 b0 ed 65 3d e5 b7 46 bd da de 16 3d 93 d9 2c 3d
       0.05613488 -0.04851522 0.03683362 0.042199682
000320 5b 1f 95 3d 4e a6 90 3d 07 84 c0 3a d1 d8 c2 bd
       0.07281371 0.0706297 0.0014687785 -0.09514011
000330 90 c2 b0 3d 10 82 76 bd 32 f4 19 3c dc a7 79 3d
       0.0863086 -0.06018263 0.0093966 0.0609511
000340 58 8e 4b bd 80 2e ef 3c 96 a9 5c 3b 6e 81 0d bd
       -0.049696296 0.029196978 0.0033670417 -0.034547262
000350 ab 5e 0e 3d 61 ae 3e bd 1e 9f b3 bd 0f a7 94 bd
       0.03475825 -0.04655302 -0.087705836 -0.072584264
000360 40 e4 5e 3d d1 31 a0 bd c9 6e 86 bd 1c c5 e3 3b
       0.054416895 -0.07822002 -0.06564099 0.0069509875
000370 22 a9 e0 bc 00 ac 13 bd e9 a9 b4 bd 25 34 cb 3d
       -0.027424399 -0.036052704 -0.0882147 0.09922055
000380 14 b9 01 3d 97 07 77 3d 29 59 a4 3d 59 3c 30 3c
       0.031670645 0.060309973 0.080248185 0.0107565755
000390 bc 5e e2 bc fb 81 91 bd 45 44 29 bc c1 56 5b 3d
       -0.027633063 -0.0710487 -0.010331218 0.05354953
0003a0 39 c9 bc bc 6c 29 a1 bd ec 5a 5b bb fe ea 9d 3d
       -0.02304517 -0.07869229 -0.0033470942 0.07710837
0003b0 c2 17 5f 3c 69 0d 9d 3d 1c 57 89 bd 9c 44 49 3d
       0.013616504 0.076685734 -0.06706068 0.049137697
0003c0 59 ef 9c 3d 48 1f 86 bc b4 68 19 3d bb 88 0b bd
       0.076628394 -0.016372338 0.03745337 -0.034065943
0003d0 35 c2 8f 3d de cc a9 bd 23 92 74 bd ad f5 9f bd
       0.07019464 -0.082910284 -0.05970968 -0.07810531
0003e0 f8 80 40 bd 83 74 37 bd 83 fc 0f 3d db a2 89 bd
       -0.046997994 -0.04478885 0.035152923 -0.06720515
0003f0 d3 3e 00 bd ce b2 b9 bd c9 70 81 bd b6 43 e5 bc
       -0.031309914 -0.090673074 -0.0632034 -0.027986389

fc2.bias f4 [84]
000000 82 cd b9 bc 20 67 db ba 30 35 87 bd 2f 65 16 bc
       -0.022681002 -0.0016739108 -0.066019416 -0.0091793975
000010 1a be 0b 3e f5 99 90 bd 7d b1 05 3d 5c 37 75 bc
       0.13646737 -0.07060615 0.03263997 -0.014966812
000020 38 12 fe 3d 51 18 99 bd 86 c5 ea 3d 06 90 a2 bb
       0.12405819 -0.07475341 0.11463456 -0.0049610166
000030 6e b8 b3 3d 04 ac 5e bd 3d 94 e6 3c 06 d0 72 bd
       0.087754115 -0.054363266 0.028146857 -0.059280418
000040 95 dc ac bc ee 9e 2e 3d 53 15 c7 bd 2f d8 a5 3e
       -0.021101275 0.042632036 -0.09720864 0.32391497
000050 2c 4c 44 3d 3a 4d b7 bd 9b ee 12 bd 89 5c 68 3e
       0.047924206 -0.08950277 -0.035872083 0.2269155
000060 dd 8f 80 bc 66 1b 14 bd ca a2 bf 3d 9c c5 c1 3e
       -0.0156936 -0.03615894 0.093572214 0.37846076
000070 1f e4 c0 bd ba ba 31 3e 84 ae f7 3d 13 eb b8 bd
       -0.09418511 0.17356387 0.12093833 -0.09029212
000080 e2 6b c7 3e 3c bc d7 3d dd 6d b4 3e ed 27 69 3d
       0.38949496 0.1053395 0.3524007 0.05692284
000090 cc fb f9 3d b3 13 c0 3e 46 d6 9e bd e5 67 9f bd
       0.122062296 0.3751503 -0.07755713 -0.07783488
0000a0 a7 e3 3a 3d 3f 03 8d 3c 25 5c 6d bd 86 24 1c 3e
       0.045627262 0.017213462 -0.057949204 0.15248308
0000b0 ce 84 c7 bd ef 45 5f bd d0 4c cb 3c 17 f1 38 3e
       -0.09742127 -0.054510053 0.0248169 0.18060718
0000c0 aa 59 21 3e a6 48 9e 3e 07 76 07 3d bc b3 b0 3d
       0.1575686 0.309148 0.033071544 0.086280316
0000d0 0d 10 20 bd f4 5e 93 bd 0f a1 21 3e a7 8b 22 3d
       -0.039077807 -0.07195845 0.15784095 0.039683964
0000e0 91 4b 0c 3d f7 a4 18 3e 5b 58 8e bd 9b 87 8c 3d
       0.034251753 0.14906679 -0.06950446 0.06861802
0000f0 62 24 25 3e e6 07 87 bd 84 c6 6d bc 48 ad 2e bd
       0.1612716 -0.065933034 -0.014512662 -0.042645723
000100 0c d4 a7 3e dd c4 50 bd 05 d6 24 bd 0d d4 c2 bd
       0.32778966 -0.050968993 -0.040243167 -0.09513102
000110 bb a4 81 3b d0 4d 00 3d b0 1f 99 bd bf c9 0c bd
       0.003956405 0.031324208 -0.07476747 -0.034372088
000120 e6 50 02 3e c7 50 3b 3e 3d f4 db 3d 07 a5 14 3c
       0.12726173 0.18292533 0.10739944 0.009072549
000130 94 9a 2a 3c 6c 75 6f bd 61 b1 39 3e 17 ce ad 3d
       0.010412831 -0.05846159 0.18134071 0.08486574
000140 df 3d a6 3e bb 42 02 3d 0d 61 3f bd a3 96 a1 3e
       0.3246908 0.03180192 -0.046723414 0.3156024

fc3.weight f4 [10, 84]
000000 6b a5 5c bd 00 96 e1 3c c7 7d 2a 3d 2a 82 42 3d
       -0.053868692 0.027537346 0.041623857 0.047487415
000010 e5 b2 5e 3d 4c 8d 06 3e 8b 4d 94 3d 7f a1 13 3d
       0.054369826 0.13139838 0.07241353 0.036042687
000020 00 58 03 3e 9d 9b e6 3d d0 65 36 be 7c 90 a0 3c
       0.12826538 0.1126015 -0.17812276 0.019600146
000030 ff 64 ca 3b 1d ca 4f 3d 0d 5a f5 bc 80 a4 a3 bd
       0.0061765905 0.05072986 -0.029950166 -0.0799036
000040 3b 30 14 3e a4 6f 0c be c9 c9 bb bd 5b 7e b5 3c
       0.14471523 -0.13714463 -0.09169347 0.022154978
000050 d0 d1 fb bd 51 2e 9c bd 6e b5 a3 3d 18 7e 1c 3e
       -0.12295878 -0.07626022 0.07993589 0.15282476
000060 bb f6 8c 3d 60 e2 80 bd 6e 73 26 be d5 41 9e be
       0.068829976 -0.062931776 -0.1625497 -0.309096
000070 e1 0e a4 3d c8 17 2d 3e 2c a1 cc bd 91 bf 31 bc
       0.080106504 0.16903603 -0.099916786 -0.010848896
000080 2a b8 40 be 92 39 0d 3e df 7f 05 3e 84 f5 01 bd
       -0.18820253 0.13791493 0.1303706 -0.031728283
000090 dc e3 9c 3e 92 af 8f be 45 12 b6 bc 36 ce d2 bd
       0.30642593 -0.28063637 -0.022225508 -0.10293238
0000a0 15 92 9c 3d 0a e3 f3 3c e9 00 8f 3d 3d 86 1a bd
       0.076450504 0.029771347 0.069825955 -0.037725676
0000b0 cc 9d f1 3d 3a 53 63 be c8 a9 0b 3d f3 a9 92 bd
       0.117976755 -0.22199717 0.034097463 -0.071613215
0000c0 e0 3b 2a be d2 a4 84 3e b1 57 44 3e 0a 4a 69 3c
       -0.16624403 0.25906998 0.19174077 0.014238844
0000d0 ea d8 f3 3d e8 cc 0e 3e 86 60 70 be e2 25 3f 3e
       0.119066074 0.13945353 -0.23474321 0.18666795
0000e0 e9 ef 70 3d 49 d1 4f be 49 d5 f6 bd 18 66 08 3e
       0.058822546 -0.2029468 -0.120524 0.13320196
0000f0 32 56 3e 3d 79 fc 62 3e 53 9f 8f ba e7 26 b3 3c
       0.04646892 0.22166623 -0.0010957516 0.021869136
000100 c1 30 6a 3e ac f7 de bb b5 40 93 bd ac 16 c8 3d
       0.2287016 -0.006804427 -0.07190076 0.09769949
000110 23 6d 2c be 7d 50 2e 3c 2c 2b 2a be 1b 06 51 bc
       -0.16838507 0.010639307 -0.16618031 -0.012757803
000120 d1 c2 6c 3e 24 bd 10 3e ac 9e 58 bd 1d 7f 4f 3c
       0.23121192 0.14134651 -0.052885696 0.0126645835
000130 7a c2 42 bd a1 3a 65 bc 7c 59 4a be a2 17 19 3e
       -0.04754875 -0.013991029 -0.19760698 0.14950421
000140 ee a2 72 3d 79 d9 2b 3e f9 3b d8 3d 3c c2 59 be
       0.059237413 0.16782178 0.10558314 -0.21265501
000150 b5 d1 89 3e 67 69 3b bc ad 87 a7 bd ef ae a9 3d
       0.26917806 -0.011438704 -0.08180175 0.08285319
000160 1a 93 80 bb d9 f3 6d bd 16 0b 56 bc 77 69 94 bd
       -0.003923786 -0.05809388 -0.0130641665 -0.07246678
000170 de 9c 15 3e a1 95 be bd 15 94 05 be c3 c8 9e bd
       0.14610621 -0.09305883 -0.1304477 -0.07753136
000180 12 97 bd bd 72 dc cb 3c 44 ea d2 3d 13 2c 7f 3d
       -0.0925733 0.02488539 0.10298589 0.06229789
000190 93 af ea 3d 1f 0d e9 bd 62 4c 9e bd 1b 28 89 be
       0.114592694 -0.11379456 -0.077294126 -0.2678841
0001a0 f7 29 ef 3d 11 24 0d bd c8 08 3a bc 8c 80 51 be
       0.11677926 -0.034458224 -0.011354633 -0.20459193
0001b0 5f 86 f4 bd cc eb 0e 3d 1d 2b 94 be 68 f4 55 be
       -0.11939692 0.034892842 -0.28939143 -0.20894015
0001c0 34 68 38 bc 8a e8 92 be ec 6e 6c 3d 28 57 bf bd
       -0.011255313 -0.28693038 0.05772297 -0.093427956
0001d0 0d 6b cb bd 71 66 f1 bd cf 00 5f be 0f 7b 89 3e
       -0.09932528 -0.11787117 -0.21777652 0.268517
0001e0 d8 1a db bb 8e 9a 81 bd 04 5a 16 3d 47 cd 5c bc
       -0.0066865496 -0.06328307 0.03670694 -0.013476676
0001f0 cf 1c ff 3c 8f 3c 05 be a7 16 8f bc 71 34 e6 3c
       0.031141667 -0.13011383 -0.017466856 0.028101178
000200 6d 1c 74 3e c6 a4 33 3e 8b ad f6 bd c2 8b 02 be
       0.23838969 0.17543325 -0.120448194 -0.12748626
000210 4f b6 85 3e ce 4a a4 bd b2 0c af 3e 1c e4 06 3d
       0.26115653 -0.0802208 0.34189373 0.032932386
000220 1b 55 4b 3e 67 17 8b be 14 21 9a be 93 5a b0 bd
       0.19856684 -0.27166292 -0.30103362 -0.08611026
000230 d1 ef 9f 3d 67 37 67 3d 5e a0 c5 3d 67 ee 2b bd
       0.07809413 0.05644932 0.09649728 -0.041975405
000240 eb 41 1e 3c e8 aa c2 3e a7 22 1c 3d 7f a6 c8 3d
       0.009659271 0.38021016 0.038118985 0.097973816
000250 7d 8b a3 3d c8 ca 04 3c 6c d8 17 bd ed a4 d0 bb
       0.0798559 0.008104987 -0.03707163 -0.006367317
000260 51 f8 44 3d 0a 50 75 bd 87 20 63 3e be d2 53 be
       0.048088375 -0.059890784 0.22180377 -0.2068586
000270 67 75 35 be 0d 04 53 be 65 11 3c be ab fd a1 3d
       -0.17720567 -0.20607014 -0.1836601 0.079097115
000280 24 33 c7 3d a3 81 1f be 3b 76 5a be 62 47 18 3e
       0.09726551 -0.15576796 -0.21334164 0.1487098
000290 14 6e c9 3c e0 76 0b bd 0a d6 5e 3d 3e d0 42 be
       0.024588622 -0.034048915 0.054403342 -0.1902475
0002a0 92 cb be bd cc 1e da bd 0f 7c 70 bc 04 29 05 bd
       -0.09316172 -0.10650405 -0.014678015 -0.03250982
0002b0 1e 25 23 3e 1d 5c 0a 3e 32 20 91 bd a6 b1 e4 bb
       0.15932128 0.13511701 -0.07086219 -0.006979185
0002c0 f7 63 a9 3d 63 fb 2d be c5 86 d5 3d ba ec 14 be
       0.0827102 -0.16990428 0.10426096 -0.14543429
0002d0 60 6e 48 3b c8 7e 36 be 3b 66 00 be 3c 8b 94 3d
       0.0030583367 -0.178218 -0.12538998 0.07253119
0002e0 a8 8b f6 3c e1 52 53 bd a1 6d f6 3c 09 4d 73 3d
       0.03009589 -0.05159271 0.030081572 0.05939964
0002f0 66 d6 e8 3d 31 27 3d bc 4a 70 bc 3d d0 5d 3f 3e
       0.11369018 -0.0115449885 0.09201105 0.1868813
000300 f7 e0 89 3d 9b a1 d7 3c 19 24 34 bd f1 74 71 3d
       0.06732362 0.026322177 -0.043979738 0.058949415
000310 fc 1e 43 3d 40 8d a5 3e d0 49 9a bc 07 8f a1 3d
       0.04763697 0.32334328 -0.018834025 0.078886084
000320 c3 ed 29 3e 57 1b 1d 3d 5a 71 1d 3e 75 31 27 be
       0.16594605 0.03835615 0.15375271 -0.1632746
000330 45 78 c4 3d bf 11 3e 3e 1f 95 9f 3d 42 48 95 bd
       0.09593252 0.18561457 0.077921145 -0.07289173
000340 99 e4 dc 3d 39 d4 d0 bd c0 76 47 3d f6 be df bc
       0.10785789 -0.10196728 0.048697233 -0.027312737
000350 15 0b fa bd 8b 56 45 be ac 79 70 3e c8 ec ab bd
       -0.12209145 -0.19271295 0.23483914 -0.08394772
000360 96 53 53 be 3d 93 ca 3d b9 7b 92 be a2 a3 aa bd
       -0.20637354 0.09891365 -0.28610018 -0.08331992
000370 7f ed dc 3d 08 22 fa 3d 49 2d bf 3d d6 5e 03 3d
       0.10787486 0.12213522 0.09334809 0.032072864
000380 68 f8 95 3d e7 ca de bd 90 d9 cb 3c 84 d3 3f bd
       0.0732277 -0.10878544 0.024884015 -0.046832576
000390 f9 d1 5b be 97 b3 c2 bc 6c 1a ac bc 62 d6 99 3c
       -0.21466817 -0.023767276 -0.021008693 0.018778984
0003a0 87 71 01 be 26 27 c7 bd 6b 41 9c bb be 04 80 3d
       -0.12640963 -0.09724264 -0.0047685406 0.062509045
0003b0 b7 d1 13 3e df a4 fa bc 86 14 79 3c 81 dc 31 be
       0.14435469 -0.030596195 0.015202647 -0.17369272
0003c0 b9 72 d0 3c b1 b1 4c 3e b6 e7 56 3e bc 95 e7 3d
       0.025445329 0.19989659 0.20986828 0.113078564
0003d0 6e 1b af bc 33 b8 1d be 00 5a a0 bb 58 b4 95 bd
       -0.021375384 -0.15402298 -0.0048935413 -0.073097885
0003e0 0a b0 8d 3e 6f a9 fe bc b5 3e 88 3c 23 4f 2b bc
       0.2767337 -0.031086652 0.016631464 -0.010455879
0003f0 84 d2 14 be 1d 36 a3 3b 2c 82 68 bd 01 7b 48 bd
       -0.1453343 0.004980816 -0.056764767 -0.04894543

fc3.bias f4 [10]
000000 8f f5 5e be 0c 75 b1 be aa f1 0a 3e dc 05 8e 3e
       -0.2177336 -0.34659612 0.1356875 0.27738845
000010 27 cf 87 3e 27 12 2c be 92 d9 cc 3d 9c 50 b4 be
       0.26525232 -0.168038 0.10002436 -0.3521775
000020 93 69 db 3e c0 03 8f be
       0.42853984 -0.2793255
